experiments/model.pth (torch_old, 837532 bytes, 24 tensors)

downsampling_layers.0.weight f4 [64, 3, 3, 3]
0.037588194 -0.09819711 0.048901483 0.06069625 -0.10371943 -0.057022847 -0.119707406 0.06189417
-0.06055766 0.11034579 0.10003198 0.027806818 -0.07969262 -0.12374278 -0.054536566 -0.08483969
0.10110516 -0.16456044 0.16421434 -0.14508371 0.14827847 -0.028024111 0.11818599 0.0547397
0.012808913 0.008429692 0.1613611 0.05975106 0.16598631 -0.12447139 0.21863519 0.08235734
0.10383815 0.0002932561 0.11436436 0.22434075 -0.06411078 -0.117578685 0.006925109 -0.092099816
0.052127276 -0.05994485 -0.06244117 0.17606865 0.18249649 -0.0019597504 -0.06703205 -0.03381351
0.061447877 -0.19211273 -0.16353132 0.11840803 0.15365626 -0.035193663 -0.16261375 -0.004369107
-0.09929925 -0.06747383 0.06029544 0.04718742 -0.04241614 0.0005007264 -0.03247472 -0.13560563
-0.04892228 0.0074234535 -0.09400592 -0.07283108 0.065611266 0.086562864 0.033019815 -0.038184777
0.17883916 -0.10153242 -0.048515223 0.20369248 0.06153983 0.021621361 0.07737462 -0.014819323
0.20797703 -0.17486818 -0.07489273 -0.052970048 -0.1216514 -0.050824493 0.1080396 0.12250263
-0.016399505 0.12605436 -0.14484666 -0.13446318 0.07815216 -0.030863278 -0.18534087 -0.114953585
-0.10071046 0.11848457 0.059200358 0.13379233 -0.15850894 -0.17934434 -0.16145933 -0.042561058
-0.051518798 -0.15756579 0.09478244 -0.06413129 -0.12958267 0.083942905 -0.05729018 0.117722504
0.034549635 -0.010794919 0.03619265 -0.14011241 -0.10781762 -0.09199226 -0.101202585 0.050231863
0.046416175 -0.06497315 0.13249959 -0.110599905 0.029693892 -0.031500254 -0.18787494 -0.12001398
0.08877143 0.08648914 -0.11952598 -0.07830178 -0.18358308 0.10320042 0.13509485 0.06355242
-0.12312883 0.101830766 0.1579851 -0.038880914 -0.029676504 0.06255623 0.024803398 -0.061329056
-0.19469316 -0.14707038 0.011779826 -0.013209232 0.1157489 -0.013491088 -0.06533011 -0.19150719
-0.1698959 0.06853593 0.2201491 0.023460846 -0.1757632 0.060778804 0.14921325 -0.12256555
-0.025169054 0.037635315 -0.089270145 -0.19164017 0.096260205 -0.15788487 -0.08291443 -0.101071365
0.1420522 0.023029318 0.07972821 -0.093792684 0.16772825 0.041669108 -0.02572041 -0.052220624
-0.12092969 -0.007697197 0.109464385 -0.080885045 0.13473244 0.0720846 -0.057024572 0.028352784
-0.011078464 -0.06857429 -0.14278576 0.07052152 0.08825812 0.14199278 0.089849286 0.2399284
0.21517827 -0.17501236 0.015534733 -0.02454886 0.078437604 -0.06003687 0.024644142 -0.144529
0.092784844 0.21073066 -0.047219396 -0.112856306 -0.13589843 -0.04167748 0.018962134 0.039514344
0.06639148 0.16237958 -0.008020379 0.115389176 -0.06280992 0.23349881 0.0797249 0.05690914
0.12906912 0.06444884 0.014798727 -0.082829714 0.0178964 -0.01279395 -0.13292047 -0.016850213
0.034844663 -0.084373295 0.056237865 -0.055230066 -0.1455649 -0.107854724 -0.13820316 0.04560511
0.10806874 0.1868811 0.22244811 0.08390225 0.119437255 -0.03436178 0.15688328 -0.03919884
-0.05155101 -0.07668046 -0.10872056 -0.14248104 -0.05212156 0.16680427 -0.09169241 -0.18221243
-0.050596397 0.17979436 0.05587477 -0.014313479 -0.04498214 0.15822197 -0.17770477 0.116459765
00000000: 14f6 193d 911b c9bd ec4c 483d a29c 783d
00000010: da6a d4bd ca90 69bd 2829 f5bd be84 7d3d
00000020: 4f0b 78bd f9fc e13d 91dd cc3d 20cb e33c
00000030: e235 a3bd db6c fdbd bc61 5fbd 6ec0 adbd
00000040: 3910 cf3d 8882 28be ce27 283e d390 14be
00000050: 50d6 173e d292 e5bc 7f0b f23d bc36 603d
00000060: 7adc 513c b11c 0a3c d83b 253e 87bd 743d
00000070: 51f8 293e dbea febd e7e1 5f3e f7aa a83d
00000080: 19a9 d43d 2bc0 9939 dd37 ea3d 95b9 653e
00000090: 834c 83bd 18cd f0bd 06ec e23b d49e bcbd
000000a0: 6983 553d bb88 75bd 50c2 7fbd 574b 343e
000000b0: 5ce0 3a3e 286f 00bb 1948 89bd 0980 0abd
000000c0: c5b0 7b3d 33b9 44be c174 27be e97f f23d
000000d0: 1158 1d3e 3b27 10bd 3884 26be ba2a 8fbb
000000e0: 685d cbbd b82f 8abd 5af8 763d 9947 413d
000000f0: 8cbc 2dbd 2e43 033a 3604 05bd 34dc 0abe
00000100: bb62 48bd 7140 f33b 2d86 c0bd 7628 95bd
00000110: 335f 863d df47 b13d c93f 073d a467 1cbd
00000120: 9d21 373e 3bf0 cfbd e6b7 46bd c394 503e
00000130: 3011 7c3d 481f b13c 9676 9e3d bfcc 72bc
00000140: eef7 543e a510 33be 5c61 99bd 1ff7 58bd
00000150: 5f24 f9bd 582d 50bd de43 dd3d a9e2 fa3d
00000160: 4158 86bc 6514 013e af52 14be b7b0 09be
00000170: 3d0e a03d fcd4 fcbc ffc9 3dbe c96c ebbd
00000180: 4941 cebd 0aa8 f23d 137c 723d db00 093e
00000190: 2b50 22be 0ba6 37be 9855 25be 8154 2ebd
000001a0: 6005 53bd ed58 21be 4c1d c23d 4457 83bd
000001b0: 52b1 04be 42ea ab3d 1ca9 6abd 7f18 f13d
000001c0: eb83 0d3d 2cdd 30bc bf3e 143d a179 0fbe
000001d0: 7ccf dcbd 7066 bcbd 4d43 cfbd edbf 4d3d
000001e0: e31e 3e3d a510 85bd f9ad 073e 3482 e2bd
000001f0: 9b40 f33c 6906 01bd 4a62 40be e4c9 f5bd
00000200: cccd b53d 3821 b13d 09ca f4bd af5c a0bd
00000210: 34fd 3bbe be5a d33d 4e56 0a3e c527 823d
00000220: f82a fcbd a68c d03d d9c6 213e 9841 1fbd
00000230: 241c f3bc 7b1d 803d 7f30 cb3c 2d34 7bbd
00000240: a55d 47be 9e99 16be 2c00 413c 896b 58bc
00000250: c20d ed3d b909 5dbc cbcb 85bd 761a 44be
00000260: 31f9 2dbe 915c 8c3d c46e 613e f630 c03c
00000270: 45fb 33be 32f3 783d 5ccb 183e a603 fbbd
00000280: 552f cebc 7d27 1a3d 44d3 b6bd 523d 44be
00000290: 1224 c53d 92ac 21be 0acf a9bd 81fe cebd
000002a0: 2276 113e fba7 bc3c 8b48 a33d 6116 c0bd
000002b0: f4c0 2b3e 3aad 2a3d 9cb3 d2bc 4be5 55bd
000002c0: fca9 f7bd c538 fcbb dd2e e03d 0fa7 a5bd
000002d0: 4df7 093e 17a1 933d 9992 69bd 1944 e83c
000002e0: 7282 35bc ad70 8cbd 6e36 12be 966d 903d
000002f0: acc0 b43d 8e66 113e e702 b83d caaf 753e
00000300: b157 5c3e 7136 33be 6585 7e3c b11a c9bc
00000310: e5a3 a03d 39e9 75bd 83e2 c93c 69ff 13be
00000320: fb05 be3d c7c9 573e 2069 41bd 3521 e7bd
00000330: f528 0bbe 01b6 2abd 7a56 9b3c cbd9 213d
00000340: 42f8 873d d546 263e e867 03bc 2951 ec3d
00000350: 7da2 80bd 501a 6f3e cf46 a33d 8f19 693d
00000360: b22a 043e c1fd 833d 5c76 723c a0a2 a9bd
00000370: 799b 923c b79d 51bc 4e1c 08be 7509 8abc
00000380: 47b9 0e3d e8cb acbd ad59 663d ec38 62bd
00000390: f70e 15be f0e2 dcbd 2185 0dbe 6ccc 3a3d
000003a0: 2553 dd3d c25d 3f3e 70c9 633e f1d4 ab3d
000003b0: 859b f43d f0be 0cbd 03a6 203e f68e 20bd
000003c0: 2727 53bd a50a 9dbd e3a8 debd 8de6 11be
000003d0: 6b7d 55bd bdce 2a3e 3bc9 bbbd e595 3abe
000003e0: 2b3e 4fbd 031c 383e f1dc 643d 1583 6abc
000003f0: 313f 38bd f104 223e 3df8 35be 7582 ee3d

downsampling_layers.0.bias f4 [64]
0.080840446 -0.07951661 -0.04198689 0.083795175 0.013978087 0.000567888 -0.022183249 0.015539955
0.1881675 0.16856824 -0.19156487 -0.13960153 -0.15310065 -0.0021635736 0.069331326 -0.12871955
0.09692774 -0.19867288 0.13957293 -0.009991483 0.057693515 0.13715164 0.0071309786 -0.08067864
-0.07035507 0.18888175 -0.049221385 0.0010399562 -0.1692597 -0.112866245 -0.0071988795 0.0458185
-0.14644337 0.038939264 0.1764626 0.17929317 0.037044685 0.1611779 0.2148186 0.06372912
0.16055645 0.028607458 -0.051616568 0.13268039 0.068498805 0.03128293 -0.010917367 -0.01520719
-0.15377155 -0.101415776 -0.1213911 -0.038367163 0.08950985 -0.08335915 0.0009894845 -0.061749004
-0.080734655 0.063301295 0.07670452 0.16871497 -0.036566623 0.14309253 -0.12728405 0.012300235
00000000: ad8f a53d 9bd9 a2bd 72fa 2bbd ce9c ab3d
00000010: 5904 653c 52de 143a a5b9 b5bc 4c9b 7e3c
00000020: fbae 403e 279d 2c3e 9529 44be b4f3 0ebe
00000030: 6bc6 1cbe beca 0dbb 95fd 8d3d 0fcf 03be
00000040: 0d82 c63d e770 4bbe 35ec 0e3e 51b3 23bc
00000050: 0950 6c3d 7b71 0c3e fcaa e93b d83a a5bd
00000060: 5216 90bd 386a 413e 5d9c 49bd 244f 883a
00000070: 6a52 2dbe 6b26 e7bd 94e4 ebbb 2eac 3b3d
00000080: 40f5 15be c77e 1f3d 9db2 343e a198 373e
00000090: 2bbc 173d d20b 253e 68f9 5b3e 6a84 823d
000000a0: e968 243e 305a ea3c e56b 53bd 5edd 073e
000000b0: 1a49 8c3d 8822 003d c2de 32bc 9427 79bc
000000c0: 4a76 1dbe 13b3 cfbd e69b f8bd e326 1dbd
000000d0: f150 b73d 34b8 aabd 97b1 813a 86ec 7cbd
000000e0: 3658 a5bd 1ca4 813d 4217 9d3d 9ec3 2c3e
000000f0: e2c6 15bd d986 123e c056 02be ed86 493c

downsampling_layers.1.weight f4 [64]
0.98154813 0.97921973 1.0252739 0.98576134 0.9981571 1.0124279 0.9906032 0.99258155
1.0130762 0.9906119 0.9808604 0.99035996 1.0008941 0.9651855 0.9860179 0.9794103
0.99394685 0.9946832 0.99299663 1.0355895 0.9979454 1.0010602 0.9972104 1.0103724
1.0102831 1.0131696 0.9852855 0.9569002 1.0079604 0.9858978 0.98088276 0.9872417
0.9989239 1.0046659 0.98779494 0.9920472 1.0180664 0.94843537 1.0108464 1.0506527
0.91419667 0.9946071 1.0024042 0.98180646 0.99366045 0.9946845 1.0085279 0.9999685
1.0002394 1.0007156 0.9985171 1.0000608 0.9650226 1.0137126 1.0077144 0.98071235
1.0004791 0.9988714 0.9853401 0.9798373 1.024401 1.0285268 1.0158856 1.0038364
00000000: bd46 7b3f 25ae 7a3f 2d3c 833f db5a 7c3f
00000010: 3987 7f3f 3d97 813f 2c98 7d3f d319 7e3f
00000020: 7bac 813f be98 7d3f ab19 7b3f 3b88 7d3f
00000030: 4c1d 803f 6616 773f ab6b 7c3f a2ba 7a3f
00000040: 4d73 7e3f 8fa3 7e3f 0735 7e3f 328e 843f
00000050: 5a79 7f3f be22 803f 2e49 7f3f e253 813f
00000060: f550 813f 8baf 813f ac3b 7c3f 69f7 743f
00000070: d904 813f cc63 7c3f 221b 7b3f dfbb 7c3f
00000080: 7ab9 7f3f e498 803f 21e0 7c3f cef6 7d3f
00000090: 0050 823f a9cc 723f 6a63 813f ca7b 863f
000000a0: cb08 6a3f 929e 7e3f c84e 803f ab57 7b3f
000000b0: 8860 7e3f a5a3 7e3f 7117 813f f0fd 7f3f
000000c0: d807 803f 7317 803f d19e 7f3f fe01 803f
000000d0: b90b 773f 56c1 813f c9fc 803f f70f 7b3f
000000e0: b30f 803f 09b6 7f3f 403f 7c3f 9ed6 7a3f
000000f0: 921f 833f c4a6 833f 8a08 823f b67d 803f

downsampling_layers.1.bias f4 [64]
-0.029270496 -0.033731908 0.0065652607 -0.036489647 -0.06412632 -0.0070988354 -0.042434994 -0.032029305
-0.033100657 -0.021563118 -0.03308694 -0.013750933 -0.035310835 -0.063357756 -0.042697083 -0.043090273
0.013859394 -0.027766472 -0.023665156 -0.008200632 -0.0071169483 -0.012943023 -0.031973112 0.0066968296
0.0023376818 0.015150392 -0.028765744 -0.060120005 -0.010124922 -0.0231597 -0.016736692 -0.031611428
-0.026643587 -0.020865446 -0.040975235 -0.037169088 -0.0013343922 -0.04810756 -0.001910963 0.021320488
-0.086687535 -0.027430039 -0.011272319 -0.02497941 -0.022887964 -0.019104188 -0.016539918 -0.020720312
-0.008209849 -0.002012851 -0.015668338 -0.020147393 -0.04870627 -0.011370044 -0.010526402 -0.05588506
-0.031882327 -0.019711187 -0.04778249 -0.04418309 0.0018679241 -0.0029387975 -0.0059135887 -0.0065880185
00000000: aec8 efbc 782a 0abd 6621 d73b 2b76 15bd
00000010: a954 83bd 599d e8bb 51d0 2dbd 2931 03bd
00000020: 8e94 07bd 23a5 b0bc 2c86 07bd 984b 61bc
00000030: 18a2 10bd b6c1 81bd 23e3 2ebd 6d7f 30bd
00000040: 8312 633c 8376 e3bc 6edd c1bc f25b 06bc
00000050: 4a35 e9bb f90e 54bc 3df6 02bd 1471 db3b
00000060: cb33 193b 5a39 783c 23a6 ebbc 6540 76bd
00000070: 00e3 25bc 69b9 bdbc 631b 89bc fc7a 01bd
00000080: a743 dabc 03ee aabc a6d5 27bd 9d3e 18bd
00000090: c6e6 aeba 6f0c 45bd 4779 faba 4ea8 ae3c
000000a0: 3c89 b1bd f6b4 e0bc 88af 38bc 9fa1 ccbc
000000b0: 8a7f bbbc 6380 9cbc b97e 87bc a5bd a9bc
000000c0: 9a82 06bc 09ea 03bb e35a 80bc 250c a5bc
000000d0: 3a80 47bd 6c49 3abc ee76 2cbc bce7 64bd
000000e0: 0b97 02bd 5b79 a1bc 92b7 43bd 54f9 34bd
000000f0: 22d5 f43a d798 40bb c7c6 c1bb 4ee0 d7bb

downsampling_layers.3.weight f4 [64, 64, 4, 4]
0.005066612 0.031140434 0.02775045 -0.01746092 0.0024475665 0.017417196 -0.036069334 -0.013011186
-0.023880288 0.04261473 0.021366391 -0.025565771 0.0073445044 0.024001062 -0.017209293 0.033060294
0.010203511 0.018488767 -0.014254792 0.034545064 -0.003396839 0.024385074 -0.019999651 0.0220784
0.018939676 -0.024457876 -0.012913497 0.011232047 0.023731321 -0.026603818 0.008558953 -0.0030231257
-0.04665864 -0.030751083 -0.04118096 0.005928992 -0.026798882 -0.05390366 -0.018574549 0.015150974
-0.031526104 -0.008684452 -0.02050481 -0.012375018 -0.020790469 0.016209492 0.01298221 -0.02186438
0.04083862 0.020099208 -0.017363545 0.022628509 0.022159992 -0.0015599077 -0.013174358 0.03043731
0.0049010753 9.588833e-05 0.008541232 -0.0001849162 0.029008789 0.0060627228 0.025320118 -0.007597548
-0.020767007 -0.010380976 0.0054402202 0.010769922 0.031626206 -0.000844089 -0.009691019 -0.015105172
0.007308321 -0.028342858 -0.01877175 0.038100842 0.04535068 0.025042655 0.050293382 0.016505264
-0.020340227 -0.000115871706 -0.028907318 -0.012392216 -0.03194452 -0.0033619876 -0.003397622 -0.013043888
-0.0028331983 0.012524918 -0.012972703 -0.051960643 -0.018893277 -0.022128271 0.009329206 0.019094976
-0.005336955 0.0117472885 0.038448215 -0.026850848 0.0002050054 0.018195767 -0.03264469 -0.028448237
0.03673964 0.011198218 -0.024702894 0.0155358 0.013552943 0.0076870825 -0.012077905 0.0071781217
0.030678185 0.0013628226 -0.033931334 0.024253717 -0.037934683 0.024132948 -0.02108376 -0.005970931
-0.0031257267 -0.00413348 0.026022188 -0.011907002 -0.030362207 0.025640884 -0.024183765 -0.007867157
-0.017400146 -0.016742513 -0.00709693 0.009180522 0.022261431 0.03876973 0.021146841 0.019085847
0.023837844 -0.0019227025 0.0059185377 -0.009750323 -0.010082772 0.014749532 0.03508691 0.012597801
-0.022068638 0.0035946488 -0.023916373 0.011465615 0.008221766 0.0028147001 -0.029882122 0.016596632
0.025985247 -0.009100173 -0.027219495 0.016741296 -0.012913991 0.0036239703 -0.00570243 -0.016759569
-0.030513398 -0.0122930445 -0.015121986 0.00041605777 0.012252238 -0.01327599 0.014572161 0.0010552931
-0.01661806 0.012226813 -0.028047532 -0.008671426 -0.033377875 -0.03430004 -0.012766521 -0.0092754895
-0.031125879 0.03331447 -0.0018063316 0.014121554 -0.007764625 0.0030267865 -0.026780287 0.024931816
0.014694079 0.010281266 0.027196068 -0.0144785335 0.016382845 -0.0070818095 -0.018946692 0.009262049
-0.03459917 0.0013789908 0.009771334 -0.0043034363 -0.027748449 0.0047565233 -0.022758828 0.016486358
0.020144515 0.024145477 0.029200636 0.015668934 -0.0024853928 -0.03230608 -0.013936994 0.0055832663
-0.007799628 0.009254655 0.017364603 -0.0032306584 -0.000778582 -0.022685971 -0.012995578 -0.024562448
0.01380159 0.030039998 -0.00825317 -0.0034251474 0.022082444 -0.020067135 0.01873112 -0.023300353
0.0018977638 0.022349257 -0.033334643 0.012999075 0.00075942324 -0.0003115714 0.033525642 0.019172803
0.028604679 0.012061687 -0.029697552 0.01818471 -0.026412386 -0.016639203 0.00060861895 0.025657717
-0.018247075 -0.019998956 -0.03232184 -0.044284884 -0.02231696 -0.03329005 -0.006629257 -0.007474954
0.009702526 -0.0047686393 -0.011514026 -0.020480216 -0.009213442 -0.006754427 -0.008693099 -0.013140234
00000000: d205 a63b 391a ff3c e954 e33c 340a 8fbc
00000010: 5a67 203b 82ae 8e3c 70bd 13bd df2c 55bc
00000020: 98a0 c3bc c88c 2e3d 9208 af3c 4f6f d1bc
00000030: 2baa f03b e09d c43c 81fa 8cbc 3b6a 073d
00000040: a12c 273c c175 973c ee8c 69bc 207f 0d3d
00000050: 809d 5ebb 35c3 c73c 4fd6 a3bc c3dd b43c
00000060: 6127 9b3c e25b c8bc 2293 53bc 9f06 383c
00000070: 3068 c23c 40f0 d9bc da3a 0c3c a21f 46bb
00000080: 211d 3fbd b2e9 fbbc 5ead 28bd fd47 c23b
00000090: 5489 dbbc 16ca 5cbd a729 98bc ca3b 783c
000000a0: 8421 01bd 3b49 0ebc b4f9 a7bc 96c0 4abc
000000b0: c650 aabc c5c9 843c 56b3 543c ee1c b3bc
000000c0: 6646 273d 18a7 a43c fe3d 8ebc 6c5f b93c
000000d0: df88 b53c d175 ccba 43d9 57bc aa57 f93c
000000e0: 3399 a03b a817 c938 86f0 0b3c 11e6 41b9
000000f0: d7a3 ed3c cea9 c63b 236c cf3c daf4 f8bb
00000100: 921f aabc f814 2abc e043 b23b 5474 303c
00000110: 7b8a 013d db45 5dba 14c7 1ebc af7b 77bc
00000120: a47a ef3b 482f e8bc 37c7 99bc a10f 1c3d
00000130: a2c1 393d 4126 cd3c 6f00 4e3d 0c36 873c
00000140: 8ca0 a6bc 2600 f3b8 0acf ecbc b908 4bbc
00000150: 42d8 02bd cb54 5cbb a3aa 5ebb 08b6 55bc
00000160: 2ead 39bb 5035 4d3c 768b 54bc afd4 54bd
00000170: 13c6 9abc 5946 b5bc 87d9 183c 116d 9c3c
00000180: a0e1 aebb b377 403c e07b 1d3d 4ff6 dbbc
00000190: b8f6 5639 4a0f 953c 70b6 05bd 470c e9bc
000001a0: 4e7c 163d bb78 373c b95d cabc de89 7e3c
000001b0: 2a0d 5e3c ece3 fb3b 68e2 45bc 7336 eb3b
000001c0: d150 fb3c bda0 b23a 95fb 0abd bbaf c63c
000001d0: 6661 1bbd 76b2 c53c d9b7 acbc cda7 c3bb
000001e0: fed8 4cbb 2572 87bb 7c2c d53c 9615 43bc
000001f0: 2aba f8bc d50c d23c 081d c6bc 40e5 00bc
00000200: c08a 8ebc 9827 89bc 5d8d e8bb e669 163c
00000210: 9b5d b63c 02cd 1e3d 243c ad3c ec59 9c3c
00000220: 9547 c33c 3103 fcba 4bf0 c13b d2bf 1fbc
00000230: 3632 25bc 05a8 713c 4bb7 0f3d 0267 4e3c
00000240: 4ac9 b4bc 3394 6b3b 45ec c3bc 46da 3b3c
00000250: 96b4 063c d576 383b 5acb f4bc a9f5 873c
00000260: 03df d43c e418 15bc 6bfb debc 0b25 893c
00000270: 3495 53bc 2280 6d3b 73db babb 5d4b 89bc
00000280: 3cf7 f9bc c468 49bc 35c2 77bc 5422 da39
00000290: 9cbd 483c 8a83 59bc 13c0 6e3c c351 8a3a
000002a0: 9922 88bc f852 483c f0c3 e5bc 9912 0ebc
000002b0: 3db7 08bd 337e 0cbd ac2a 51bc 39f8 17bc
000002c0: b3fb febc c174 083d 6ec2 ecba 175e 673c
000002d0: 656e febb 0d5d 463b 5562 dbbc cf3d cc3c
000002e0: 6fbf 703c c172 283c 4aca de3c 5f37 6dbc
000002f0: 5135 863c 860e e8bb 1836 9bbc d9bf 173c
00000300: dcb7 0dbd 41bf b43a f217 203c d703 8dbb
00000310: b750 e3bc 9cdc 9b3b b970 babc 660e 873c
00000320: 1c06 a53c bccc c53c 2c36 ef3c 235c 803c
00000330: f9e1 22bb 6153 04bd fd57 64bc d5f3 b63b
00000340: 0694 ffbb d6a0 173c 3640 8e3c 74b9 53bb
00000350: c119 4cba eed7 b9bc 68eb 54bc 3037 c9bc
00000360: 1020 623c 7116 f63c 4e38 07bc 7078 60bb
00000370: 3ee6 b43c d563 a4bc 0172 993c 62e0 bebc
00000380: 63be f83a ca15 b73c e889 08bd 13fa 543c
00000390: 0814 473a 685a a3b9 2f52 093d 4810 9d3c
000003a0: 5c54 ea3c 629e 453c 4848 f3bc 1af8 943c
000003b0: ca5e d8bc f04e 88bc ba8b 1f3a 2230 d23c
000003c0: e47a 95bc dad4 a3bc e863 04bd 1164 35bd
000003d0: 0fd2 b6bc 265b 08bd 3d3a d9bb 75f0 f4bb
000003e0: 58f7 1e3c 3f42 9cbb 53a5 3cbc 20c6 a7bc
000003f0: faf3 16bc 3e54 ddbb 806d 0ebc 234a 57bc

downsampling_layers.3.bias f4 [64]
-0.021165 0.00451566 0.015424249 0.006014392 -0.022042042 0.020415794 -0.01789332 -0.013554724
-0.016668215 -0.00025737373 0.009540326 -0.024687825 -0.035458095 0.033016764 -0.00384349 -0.009795778
0.009869504 0.0018161329 -0.018092746 0.020584874 -0.01790663 -0.013286219 -0.009564683 -0.018198313
-0.00046230067 0.0032632556 -0.005317244 0.0032829703 0.016336566 -0.030913107 -0.024645919 -0.00320552
-0.021544652 0.015667796 0.022246797 0.024100462 -0.0073993807 -0.01282868 -0.015539556 0.032402266
0.024901545 0.007885116 -0.022287015 -0.015583016 -0.029495345 0.008843798 -0.021053985 0.030327942
0.0056142304 0.0021826664 -0.019780466 0.016764173 0.028991444 -0.010181012 0.009055706 -0.008486972
0.025816804 0.011808143 -0.021769017 0.033774186 -0.017483788 -0.012880204 0.013526459 0.018087965
00000000: 3962 adbc 1af8 933b fdb5 7c3c 6014 c53b
00000010: 8391 b4bc 063f a73c 0395 92bc a214 5ebc
00000020: c88b 88bc 1ef0 86b9 074f 1c3c 1f3e cabc
00000030: 823c 11bd 963c 073d 10e3 7bbb 797e 20bc
00000040: b3b3 213c 4f0b ee3a 3d37 94bc 9ca1 a83c
00000050: edb0 92bc 71ae 59bc 30b5 1cbc a114 95bc
00000060: f260 f2b9 58dc 553b 473c aebb 1a27 573b
00000070: 43d4 853c 7c3d fdbc 3de6 c9bc b413 52bb
00000080: 697e b0bc c059 803c ea3e b63c 556e c53c
00000090: 8176 f2bb 622f 52bc 9f99 7ebc 3db8 043d
000000a0: 53fe cb3c 9330 013c 4293 b6bc e84f 7fbc
000000b0: 39a0 f1bc 94e5 103c 6879 acbc 4e72 f83c
000000c0: 94f7 b73b 110b 0f3b a50a a2bc 0555 893c
000000d0: 777f ed3c 42ce 26bc 625e 143c f10c 0bbc
000000e0: c37d d33c f176 413c f054 b2bc cd56 0a3d
000000f0: 293a 8fbc 7e07 53bc 159e 5d3c 362d 943c

downsampling_layers.4.weight f4 [64]
1.0337651 1.0502189 1.007545 0.9804619 1.0137154 0.991454 1.0313147 0.9477421
0.9570486 1.056582 1.0308044 1.0002744 1.0082498 0.989445 1.0003405 1.0238819
0.9635405 0.9838496 1.0140245 0.99903595 1.0393785 1.0399318 0.9927993 1.0270362
0.9837629 1.0119282 1.021388 1.0340128 0.9743382 0.9935949 0.96775395 1.0077137
0.9607069 1.0354868 1.0393534 1.0616555 1.0262278 0.98414093 1.0667504 1.0113299
0.98779076 1.0306581 1.0704069 1.0161291 0.95154357 1.0452732 0.98616284 0.9636568
1.0384109 1.0475681 1.0335423 0.98335224 1.0359274 1.0302899 0.9765375 1.0141606
1.0352721 1.092884 1.0559579 1.0018011 1.0287675 1.0058888 0.9982108 0.9845101
00000000: 6a52 843f 936d 863f 3cf7 803f 8dff 7a3f
00000010: 6dc1 813f eecf 7d3f 1f02 843f 3a9f 723f
00000020: 2301 753f 143e 873f 66f1 833f fe08 803f
00000030: 540e 813f 444c 7d3f 280b 803f 900e 833f
00000040: 97aa 763f 91dd 7b3f 8ecb 813f d2c0 7f3f
00000050: 5b0a 853f 7c1c 853f 1828 7e3f ec75 833f
00000060: e3d7 7b3f dd86 813f d8bc 823f 885a 843f
00000070: 3a6e 793f 3c5c 7e3f b9be 773f c3fc 803f
00000080: e3f0 753f d58a 843f 8809 853f 54e4 873f
00000090: 6f5b 833f a9f0 7b3f 478b 883f 4273 813f
000000a0: dbdf 7c3f 9bec 833f 1803 893f 8510 823f
000000b0: 5c98 733f 83cb 853f 2b75 7c3f 36b2 763f
000000c0: a6ea 843f b616 863f 1d4b 843f f9bc 7b3f
000000d0: 4599 843f 8ae0 833f 5dfe 793f 04d0 813f
000000e0: cc83 843f 9fe3 8b3f a129 873f 053b 803f
000000f0: a7ae 833f f7c0 803f be8a 7f3f db08 7c3f

downsampling_layers.4.bias f4 [64]
0.0035099643 0.03736927 -0.0073328977 -0.03769331 0.0025762727 -0.029129624 0.024720337 -0.05576494
-0.05981341 0.012186309 0.01524625 -0.008330501 -0.021752216 -0.024044119 -0.02003889 0.00020710716
-0.034381084 -0.014579555 -0.0101933135 -0.024639934 0.009085631 0.007892827 -0.022649618 -0.0147140855
-0.03727593 -0.023723554 -0.004720293 0.0029288845 -0.030879581 -0.004695839 -0.03905675 0.02190461
-0.045466326 0.011962215 0.022678968 0.03621724 0.0049624676 -0.03922902 0.04229323 -0.012752879
-0.014044821 -0.0024116281 0.04092418 -0.00050920283 -0.052053925 0.025814109 -0.02691743 -0.043219693
-0.01117127 0.021629713 0.026666798 -0.022928396 0.004755588 -0.0047658184 -0.043981712 -0.01755114
-0.016904889 0.03985261 0.02268814 -0.012666511 -0.006450105 -0.011709149 -0.034543347 -0.011922336
00000000: 6e07 663b 8510 193d ce48 f0bb 4d64 1abd
00000010: afd6 283b 40a1 eebc 4e82 ca3c c769 64bd
00000020: e8fe 74bd 16a9 473c 68cb 793c a77c 08bc
00000030: b431 b2bc 2cf8 c4bc 9928 a4bc e82a 5939
00000040: 2ed3 0cbd 16df 6ebc db01 27bc b0d9 c9bc
00000050: e6db 143c ea50 013c b18b b9bc 5913 71bc
00000060: a5ae 18bd e657 c2bc b0ac 9abb 87f2 3f3b
00000070: 2df7 fcbc 8ddf 99bb f8f9 1fbd 4c71 b33c
00000080: e63a 3abd 2bfd 433c 3ec9 b93c 8758 143d
00000090: 329c a23b 9cae 20bd aa3b 2d3d 74f1 50bc
000000a0: 401c 66bc 680c 1ebb 1da0 273d 067c 05ba
000000b0: 7f36 55bd 1c78 d33c f181 dcbc 2207 31bd
000000c0: b407 37bc cc30 b13c 5474 da3c 55d4 bbbc
000000d0: c3d4 9b3b 952a 9cbb 2b26 34bd 69c7 8fbc
000000e0: 1f7c 8abc 7e3c 233d 7adc b93c 3387 4fbc
000000f0: 675b d3bb bbd7 3fbc 537d 0dbd e755 43bc

downsampling_layers.6.weight f4 [64, 64, 4, 4]
-0.01739871 0.0076001133 -0.010834974 -0.031811435 -0.019857628 -0.024297023 0.017991338 0.008590818
0.009667625 0.0019167585 -0.030723743 -0.021371987 -0.01641585 0.026421476 -0.013415228 0.00652878
0.000731694 -0.025004838 0.015341916 0.0016215844 0.009790997 -0.00048267984 -0.021744635 -0.015470577
-0.0098451665 0.023425225 -0.03377148 -0.018639874 -0.03434381 -0.020475453 0.005846985 -0.0046701683
0.021858614 0.021016773 -0.024663458 0.019670641 0.00222695 0.0026432124 -0.0018885507 -0.010176567
-0.032416806 -0.008630057 -0.010928288 0.010227557 -0.028336158 -0.012794564 -0.012806161 0.00073789735
-0.010174365 -0.016360335 0.008760755 -0.023454031 -0.006719173 0.024077121 0.016480267 0.029582085
0.019577699 -0.024472982 -0.010428544 -0.0005817375 0.012505725 -0.010858698 0.039448522 0.01441692
-0.030826105 0.00071881386 -0.015161649 -0.003104855 -0.01385872 0.035172317 0.038140234 0.060802724
-0.0033436057 0.0326859 0.0050447895 0.042225618 -0.023050703 0.04652281 0.0043897573 0.043726414
0.0037908293 -0.026721543 -0.0045053763 -0.037242178 -0.019704819 -0.0307872 0.014876524 0.026082827
-0.013707944 -0.04186299 -0.040662717 -0.010257172 -0.028475204 0.018955387 -0.029243452 0.0125377495
0.022200497 0.011131383 0.029613739 0.008640576 -0.0050024465 -0.0070869857 0.025275946 0.03668954
0.01663805 0.0039774105 0.044537056 0.028870331 0.05337921 -0.002440163 0.04169047 -0.020925745
-0.01806949 0.020277511 -0.032638997 0.0034474423 0.018730884 0.015908012 0.0064593893 0.002711965
-0.020961192 0.008460746 0.0020069568 -0.022075305 0.023495307 -0.023780013 0.023733858 0.0063628545
0.006468172 0.029758537 0.025590917 -0.034348156 0.020191053 0.01536878 -0.02131691 0.0052204127
0.016339425 0.010426858 0.00037525236 -0.031072214 -0.0113956975 -0.0007786122 -0.020515807 0.0037472195
-0.009938205 0.047422383 0.023082495 0.034265783 -0.011340558 0.023084953 0.016092313 0.036824666
0.0356394 0.036671616 0.007264753 0.01661642 0.01760716 0.0210183 -0.0009812876 0.009796686
-0.0067945393 -0.025523137 -0.027179692 0.008591726 0.021900166 0.009669703 -0.036155343 -0.004184606
-0.04107314 -0.00921569 0.016239556 0.0033386515 -0.030528242 0.0037763233 0.005317056 -0.014598174
-0.018384585 0.0019536777 -0.0021272546 -0.032865006 0.017898235 0.020142017 0.0074742157 0.01470601
0.020755846 0.036763493 -0.034242816 0.0014714221 -0.0031424311 -0.0068292385 0.010940795 0.016221471
0.0007396826 0.011788701 0.028567264 -0.007867631 -0.016373279 -0.009159366 -0.013168444 -0.014249401
-0.007394361 0.024232004 0.0087809125 -0.015523837 -0.017514864 -0.019804556 -0.03233814 -0.03803751
-0.023276528 0.0033164583 -0.007597904 -0.0327004 0.009533154 -0.028207328 -0.028610392 0.010652261
-0.0038112418 0.011246464 -0.020348473 -0.018617935 0.024355426 -0.001022678 -0.016897378 -0.0315944
0.024119236 0.010067714 0.0062998952 0.016664488 0.006636939 0.028126555 0.012925594 0.009929397
0.013401949 -0.00012086251 -0.0031772458 -0.007987512 -0.014453801 0.012739155 0.01251407 -0.022497505
-0.02411866 -0.022350207 -0.026719391 -0.022261497 -0.02592723 -0.0055592717 -0.010724061 0.013550243
-0.028960371 -0.008820844 -0.01104493 -0.003322469 -0.010696548 -0.00017512513 0.014129507 -0.023382498
00000000: bd87 8ebc 5f0a f93b 2d85 31bc b54c 02bd
00000010: 77ac a2bc 8d0a c7bc 9262 933c 81c0 0c3c
00000020: f564 1e3c be3b fb3a 5cb0 fbbc 4e14 afbc
00000030: 887a 86bc da71 d83c 8bcb 5bbc 60ef d53b
00000040: 27cf 3f3a f2d6 ccbc a95c 7b3c 588b d43a
00000050: 6b6a 203c 3110 fdb9 ce21 b2bc 4e78 7dbc
00000060: 9f4d 21bc 42e6 bf3c f753 0abd a6b2 98bc
00000070: 18ac 0cbd 23bc a7bc 1198 bf3b 3608 99bb
00000080: d610 b33c 5e2b ac3c 050b cabc 5324 a13c
00000090: 05f2 113b bf39 2d3b 3f89 f7ba 9ebb 26bc
000000a0: 7cc7 04bd 1565 0dbc 900c 33bc 7c91 273c
000000b0: 3b21 e8bc 4aa0 51bc efd0 51bc 746f 413a
000000c0: 61b2 26bc 1c06 86bc 4589 0f3c ab22 c0bc
000000d0: 822c dcbb 623d c53c a001 873c 2156 f23c
000000e0: 6961 a03c 907b c8bc 7cdc 2abc be7f 18ba
000000f0: d0e4 4c3c aee8 31bc c694 213d f234 6c3c
00000100: 0787 fcbc c86e 3c3a 9168 78bc d37a 4bbb
00000110: af0f 63bc d910 103d ef38 1c3d 470c 793d
00000120: 6520 5bbb a6e1 053d c34e a53b c5f4 2c3d
00000130: d4d4 bcbc b48e 3e3d f4d7 8f3b 781a 333d
00000140: 906f 783b 23e7 dabc d6a1 93bb 418b 18bd
00000150: 006c a1bc 7035 fcbc aabc 733c a7ab d53c
00000160: 4997 60bc 8778 2bbd f38d 26bd b30d 28bc
00000170: d544 e9bc 5448 9b3c f78f efbc 226b 4d3c
00000180: d1dd b53c 6760 363c 8398 f23c 3491 0d3c
00000190: 90eb a3bb f239 e8bb 800f cf3c c547 163d
000001a0: 854c 883c f054 823b 7d6c 363d 7981 ec3c
000001b0: 29a4 5a3d 24eb 1fbb a0c3 2a3d 786c abbc
000001c0: 7806 94bc 061d a63c 78b0 05bd 7cee 613b
000001d0: 8371 993c 8551 823c 49a9 d33b 39bb 313b
000001e0: ceb6 abbc f19e 0a3c 2687 033b 45d7 b4bc
000001f0: 3b79 c03c 4dce c2bc 826d c23c 7e7f d03b
00000200: f6f2 d33b 2dc8 f33c 0ba4 d13c a7b0 0cbd
00000210: b567 a53c 56cd 7b3c cda0 aebc ff0f ab3b
00000220: 42da 853c 6ad5 2a3c 85bd c439 288b febc
00000230: 05b5 3abc c81b 4cba c410 a8bc e993 753b
00000240: dad3 22bc f93d 423d 8017 bd3c 475a 0c3d
00000250: bfcd 39bc a81c bd3c 07d4 833c 76d5 163d
00000260: 9ffa 113d fa34 163d 2a0d ee3b 291f 883c
00000270: e43c 903c 922e ac3c 8c9e 80ba 4782 203c
00000280: baa4 debb e615 d1bc f2a7 debc 50c4 0c3c
00000290: fa67 b33c ad6d 1e3c a017 14bd 051f 89bb
000002a0: 4f3c 28bd 68fd 16bc d108 853c 47cd 5a3b
000002b0: 5d16 fabc 317c 773b b33a ae3b 2e2d 6fbc
000002c0: 459b 96bc 4609 003b 6969 0bbb 759d 06bd
000002d0: 529f 923c df00 a53c 44ea f43b 7af1 703c
000002e0: 2a08 aa3c 5195 163d 3242 0cbd bcdc c03a
000002f0: 3ff1 4dbb cec7 dfbb 0541 333c e4e2 843c
00000300: 42e7 413a 6525 413c e505 ea3c 3ce7 00bc
00000310: 4121 86bc 2a11 16bc 75c0 57bc 5276 69bc
00000320: 654c f2bb 3282 c63c d1dd 0f3c b157 7ebc
00000330: 557b 8fbc 2a3d a2bc ff74 04bd 38cd 1bbd
00000340: 6bae bebc f058 593b d7f7 f8bb dbf0 05bd
00000350: f230 1c3c 0e13 e7bc 5760 eabc d286 2e3c
00000360: 07c6 79bb 1743 383c d7b1 a6bc a484 98bc
00000370: 0885 c73c 610b 86ba 5f6c 8abc 2169 01bd
00000380: b495 c53c 0ef3 243c 5a6f ce3b f783 883c
00000390: ae7a d93b a969 e63c dfc5 533c e9ae 223c
000003a0: d993 5b3c 9177 fdb8 5739 50bb 0ede 02bc
000003b0: a3cf 6cbc e4b7 503c d007 4d3c b04c b8bc
000003c0: 7f94 c5bc c817 b7bc a0e2 dabc be5d b6bc
000003d0: 5865 d4bc 8d2a b6bb f9b3 2fbc d701 5e3c
000003e0: 4d3e edbc 4d85 10bc cbf5 34bc c8bd 59bb
000003f0: 9340 2fbc cba1 37b9 737f 673c a78c bfbc

downsampling_layers.6.bias f4 [64]
-0.0042818515 -0.019300628 0.019110011 -0.02209237 0.020888386 -0.018997872 -0.0010079541 0.0017628896
0.01632947 0.009803661 -0.005744551 -0.01624237 -0.027712505 -0.010726075 -0.018060414 0.017817346
0.01963605 -0.010719862 0.0155660035 -0.02690007 0.016663417 0.011092375 -0.028222146 -0.03091712
0.021153983 -0.010257797 -0.019023793 -0.021677619 -0.01112835 0.0066719446 0.011443882 0.013076483
0.02716587 0.032797292 -0.014692697 0.0064009475 0.03027087 -0.020959932 -0.0019965814 0.0084479945
0.005291189 0.027255917 -0.006841607 0.020641256 0.014055401 -0.027220638 -0.002716207 0.022054065
0.007983841 -0.000498538 0.018593092 -0.022806164 0.0031979922 -0.030361641 -0.016899139 0.0028216538
0.028186414 0.029136734 0.01962366 -0.014666926 -0.0134279365 0.0059862216 -0.0011863912 0.007630313
00000000: c64e 8cbb 5a1c 9ebc 998c 9c3c 0ffb b4bc
00000010: 1f1e ab3c 6da1 9bbc 541d 84ba c210 e73a
00000020: 61c5 853c 899f 203c c93c bcbb b80e 85bc
00000030: 5605 e3bc 6bbc 2fbc 6ff3 93bc aff5 913c
00000040: c8db a03c 5ca2 2fbc 8d08 7f3c 895d dcbc
00000050: b881 883c cbbc 353c 2132 e7bc e645 fdbc
00000060: 1e4b ad3c 5210 28bc c9d7 9bbc 4395 b1bc
00000070: af53 36bc 54a0 da3b 1f7f 3b3c bf3e 563c
00000080: f58a de3c 7456 063d a3b9 70bc 0abf d13b
00000090: 9efa f73c 2ab4 abbc 14d9 02bb 7569 0a3c
000000a0: b661 ad3b cd47 df3c 8f2f e0bb da17 a93c
000000b0: a048 663c d1fd debc 6402 32bb baaa b43c
000000c0: a8ce 023c 52b0 02ba 8a50 983c fed3 babc
000000d0: 6895 513b fab8 f8bc 1070 8abc 7feb 383b
000000e0: 32e7 e63c 29b0 ee3c ccc1 a03c 8c4d 70bc
000000f0: d900 5cbc 1128 c43b af80 9bba b407 fa3b

feature_layers.odefunc.norm1.weight f4 [64]
0.9978267 0.99863905 0.99193174 0.9967087 1.001213 1.0033778 1.016997 1.023891
1.0016913 0.9967169 1.0072985 0.9906704 0.9950142 0.9848522 1.0083117 0.9915822
0.9925424 0.99100894 1.0163114 1.0011153 0.9893512 1.0103288 1.0219878 1.0050611
0.9922882 0.9992389 1.005423 1.0030761 1.0048157 1.0046179 1.0182278 0.9979917
1.0104917 0.9947594 0.993133 0.99728364 0.99874294 0.98912644 0.9917323 0.9860014
1.0090387 0.99489206 1.004611 0.9891602 0.99719006 0.9960059 1.0115981 0.9964572
1.0291098 0.99110186 1.022366 1.0134678 1.0058217 0.99687034 1.0038955 0.97656643
0.98615104 0.99656093 1.0114971 0.99387753 0.9945908 0.9783911 0.9920871 0.99008316
00000000: 9271 7f3f cfa6 7f3f 3def 7d3f 4d28 7f3f
00000010: bf27 803f af6e 803f f52c 823f dc0e 833f
00000020: 6c37 803f d728 7f3f 28ef 803f 939c 7d3f
00000030: 40b9 7e3f 461f 7c3f 5c10 813f 55d8 7d3f
00000040: 4217 7e3f c3b2 7d3f 7e16 823f 8c24 803f
00000050: 1f46 7d3f 7452 813f 7fd0 823f d8a5 803f
00000060: 9906 7e3f 1fce 7f3f b3b1 803f cc64 803f
00000070: cd9d 803f 5297 803f 4a55 823f 627c 7f3f
00000080: cb57 813f 8da8 7e3f f73d 7e3f fb4d 7f3f
00000090: 9ead 7f3f 6437 7d3f 2be2 7d3f 966a 7c3f
000000a0: 2e28 813f 3fb1 7e3f 1897 803f 9a39 7d3f
000000b0: d947 7f3f 3efa 7e3f 0c7c 813f d217 7f3f
000000c0: dfb9 833f dab8 7d3f e4dc 823f 50b9 813f
000000d0: c4be 803f e532 7f3f a67f 803f 4200 7a3f
000000e0: 6574 7c3f 9e1e 7f3f bd78 813f c26e 7e3f
000000f0: 819d 7e3f d777 7a3f 6cf9 7d3f 1776 7d3f

feature_layers.odefunc.norm1.bias f4 [64]
-0.0016259908 0.003281236 -0.009673413 -0.0027298923 0.0024441017 0.0025474245 0.020199396 0.020465001
-0.007797025 -0.0022606994 0.005790302 -0.013283323 -0.011768832 -0.012997819 0.0052512675 -0.01008418
-0.006971181 -0.009907206 0.020278465 -0.0051696314 -0.0169276 0.01031188 0.0180036 -0.001917407
-0.0042430875 0.0029461137 0.0050102444 0.004969804 -0.0032991539 -0.0069443025 0.0034505127 0.0005768935
0.006293248 0.0016204992 -0.005214614 -3.564776e-05 0.0016318052 -0.0020954087 -0.009056461 -0.009387245
0.0076174396 -0.00054781896 0.0057032593 -0.011365059 0.0056049894 -0.00017836988 0.001350515 -0.0021115185
0.018325329 -0.009197101 0.013231305 -0.004683985 0.007434549 -0.013183767 0.00077923253 -0.020850014
-0.009275453 -0.004742196 0.020806203 -0.0035083883 -0.008860314 -0.015763432 -0.0047234725 -0.01014868
00000000: 331f d5ba 010a 573b 3c7d 1ebc fee7 32bb
00000010: 392d 203b b1f2 263b 3479 a53c 38a6 a73c
00000020: 307e ffbb 3e28 14bb 93bc bd3b 4ba2 59bc
00000030: 0fd2 40bc cef4 54bc d312 ac3b 1e38 25bc
00000040: 816e e4bb d551 22bc 061f a63c 0366 a9bb
00000050: c0ab 8abc 29f3 283c 497c 933c 8151 fbba
00000060: 9909 8bbb 9613 413b fa2c a43b bdd9 a23b
00000070: 9e36 58bb 088d e3bb ff21 623b ab3a 173a
00000080: 9737 ce3b ee66 d43a 5adf aabb 7e84 15b8
00000090: 4ce2 d53a 2053 09bb 8d61 14bc f6cc 19bc
000000a0: b79b f93b 829b 0fba 68e2 ba3b 8334 3abc
000000b0: 0faa b73b cd08 3bb9 c403 b13a 6761 0abb
000000c0: 001f 963c 70af 16bc 1ec8 583c 1d7c 99bb
000000d0: 849d f33b ba00 58bc 6945 4c3a a6cd aabc
000000e0: 12f8 17bc 6c64 9bbb c571 aa3c fdec 65bb
000000f0: da2a 11bc 5022 81bc 5cc7 9abb a646 26bc

feature_layers.odefunc.conv1.weight f4 [64, 64, 3, 3]
-0.035887983 -0.03019683 0.0010005636 -0.0026937248 -0.026967853 -0.049808666 -0.003828131 -0.0054634055
0.031031003 -0.038112015 -0.03259612 -0.035438593 0.04328964 -0.007214826 0.02184638 0.030084383
0.02554703 -0.013234934 -0.0017118201 -0.027508723 -0.022445936 0.004716949 -0.031648304 0.017799495
-0.035942275 0.02440103 -0.0062443833 -0.04839418 -0.03718875 0.012987363 -0.008842622 0.004701925
-0.00041575858 0.012024303 0.025580293 -0.029149624 0.02963739 -0.043241307 0.033722892 -0.020760782
-0.02854322 -0.044025853 0.03213011 -0.024463234 0.013451032 0.0026061267 -0.025582967 0.019458182
-3.0250505e-05 -0.0049229236 0.023651602 -0.017912963 -0.032959957 -0.028754413 -0.039531544 -0.013396549
-0.008916205 0.00622304 0.0084396005 -0.013173739 0.010094039 -0.009603631 0.046435833 -0.037933394
0.0137479175 -0.03926193 0.015021018 0.026930694 -0.017796572 -0.030879706 0.0031130896 -0.041579492
-0.007917272 -0.03290684 -0.04350884 -0.020681662 -0.0003844749 -0.015895782 0.039822064 -0.0123631125
-0.03437567 0.012027302 -0.028820897 -0.014956788 0.029825686 -0.002693337 -0.025672078 -0.046867527
-0.037141435 -0.011153183 0.00015869214 0.012020128 0.0035273645 -0.036939256 0.018110612 -0.006789119
-0.021084763 -0.044195034 -0.034129303 -0.03824947 -0.041501153 -0.018622609 -0.05034984 0.019725822
-0.023766022 0.0131241465 0.033071157 -0.036297154 0.005096071 -0.007307098 -0.02424944 0.024879705
0.016386392 -0.02972648 -0.04666802 -0.035216786 0.027996907 -0.011556132 0.027301611 -0.011783807
0.034773868 0.025959427 -0.007999131 -1.6243926e-05 -0.04242526 0.02083621 0.016851338 0.025083378
0.032160524 0.0045590308 -0.022612182 0.026215218 -0.02314638 0.02602185 0.028042462 0.021956712
0.019186353 -0.01432248 0.018105622 -0.0077114655 0.020823734 -0.013207443 0.0017274792 -0.020108188
-0.012397435 0.032368578 0.0069409427 0.039387885 0.01262535 8.75045e-05 -0.018692777 -0.030002933
-0.004198505 0.01324762 -0.045677315 -0.028093308 0.0048338952 0.029696988 0.03376523 -0.028087081
0.027272291 -0.042978186 -0.03707727 -0.019779176 -0.05317107 -0.0041438737 -0.045340102 -0.029312208
-0.021041844 0.023192117 -0.001902982 0.0027974532 0.017955836 0.009392559 0.018574486 0.048461717
0.0014414304 -0.019036187 -0.008241845 0.018413799 0.033055175 -0.038716406 -0.049664006 0.012115288
-0.03492342 -0.040419098 0.033268 -0.02253215 -0.029084075 -0.026810458 0.022927647 0.014166987
-0.011715854 -0.014562787 0.012691664 -0.026771735 0.015092815 -0.027826736 0.0016071217 -0.04713473
-0.039286334 -0.025148325 -0.015835311 -0.045954593 0.024212705 0.013959587 0.0038202622 0.01556222
0.03552291 -0.012663803 0.013463729 0.024754597 0.030141518 -0.015427133 -0.018484095 -0.026699437
-0.0014171724 0.022613294 -0.0020790766 -0.025948282 0.0042923326 -0.014351239 -0.015771031 0.03375225
-0.011261103 -0.011932972 -0.020122249 -0.05594048 -0.0020201136 0.008330711 0.016035633 -0.022099955
-0.036520224 -0.031060446 0.029831907 -0.038227677 -0.045340914 0.022939797 -0.011999273 0.007343958
-0.033325158 -0.046937495 0.008837981 0.0052262237 0.031904902 -0.03647398 -0.030837454 0.028010521
0.03243686 -0.0029737512 0.00012263513 -0.039038476 0.032364685 0.002952915 -0.043339726 -0.033514287
00000000: 47ff 12bd 585f f7bc 5825 833a 3489 30bb
00000010: b0eb dcbc 2c04 4cbd 61e1 7abb 5e06 b3bb
00000020: bb34 fe3c 581b 1cbd 8283 05bd 0f28 11bd
00000030: 7a50 313d 596a ecbb 2ef7 b23c 8673 f63c
00000040: 0148 d13c 56d7 58bc 275f e0ba f959 e1bc
00000050: 8ae0 b7bc a390 9a3b a7a1 01bd 3fd0 913c
00000060: 3538 13bd abe4 c73c af9d ccbb fa38 46bd
00000070: 3b53 18bd f3c8 543c a5e0 10bc 9b12 9a3b
00000080: 2cfa d9b9 9501 453c c38d d13c 31cb eebc
00000090: 1dca f23c cc1d 31bd 0421 0a3d 8412 aabc
000000a0: 79d3 e9bc 7454 34bd dd9a 033d 1f67 c8bc
000000b0: b861 5c3c 8dcb 2a3b 5f93 d1bc c466 9f3c
000000c0: 77c2 fdb7 7a50 a1bb 01c1 c13c 35be 92bc
000000d0: 0501 07bd 608e ebbc d4eb 21bd 337d 5bbc
000000e0: 4615 12bc a5ea cb3b 4046 0a3c abd6 57bc
000000f0: 7861 253c 8c58 1dbc 8033 3e3d 0c60 1bbd
00000100: f23e 613c 1ed1 20bd b71a 763c c29d dc3c
00000110: 1eca 91bc 70f7 fcbc fa04 4c3b 424f 2abd
00000120: 72b7 01bc 53c9 06bd 5336 32bd 976c a9bc
00000130: 5993 c9b9 df37 82bc 761c 233d a78e 4abc
00000140: 81cd 0cbd 290e 453c cd19 ecbc 510d 75bc
00000150: ff54 f43c b282 30bb 404e d2bc 2af8 3fbd
00000160: 9e21 18bd d7bb 36bc 9966 2639 12f0 443c
00000170: 5b2b 673b 9e4d 17bd b55c 943c 4277 debb
00000180: f4b9 acbc da05 35bd 2bcb 0bbd 7aab 1cbd
00000190: 1dfd 29bd 718e 98bc a23b 4ebd 0c98 a13c
000001a0: f6b0 c2bc a906 573c 9f75 073d 53ac 14bd
000001b0: f1fc a63b 6170 efbb c3a6 c6bc 86d0 cb3c
000001c0: c13c 863c f284 f3bc f726 3fbd 7a3f 10bd
000001d0: c559 e53c ee55 3dbc a1a7 df3c de10 41bc
000001e0: 0b6f 0e3d dda8 d43c ca0e 03bc 9143 88b7
000001f0: 1cc6 2dbd b3b0 aa3c d10b 8a3c a87b cd3c
00000200: c1ba 033d ec63 953b 2f3d b9bc 4cc1 d63c
00000210: 7a9d bdbc c62b d53c 4eb9 e53c 90de b33c
00000220: b32c 9d3c d6a8 6abc 3e52 943c 76b0 fcbb
00000230: 8996 aa3c 0864 58bc 956c e23a edb9 a4bc
00000240: 9c1e 4bbc ea94 043d d970 e33b 3155 213d
00000250: 8eda 4e3c 9f82 b738 9821 99bc b6c8 f5bc
00000260: 9d93 89bb 8c0c 593c 2318 3bbd f023 e6bc
00000270: a765 9e3b 1947 f33c 694d 0a3d e116 e6bc
00000280: 246a df3c e509 30bd 56de 17bd f007 a2bc
00000290: e8c9 59bd 55c9 87bb 8bb6 39bd 2820 f0bc
000002a0: f25f acbc 65fd bd3c 7b6d f9ba 7a55 373b
000002b0: 1e18 933c 3fe3 193c 8529 983c cb7f 463d
000002c0: 61ee bc3a c7f1 9bbc ce08 07bc 89d8 963c
000002d0: dd64 073d 1895 1ebd 7c6c 4bbd 337f 463c
000002e0: dc0b 0fbd 7f8e 25bd 0744 083d 5895 b8bc
000002f0: ba41 eebc 9ba1 dbbc c3d2 bb3c a61c 683c
00000300: daf3 3fbc c198 6ebc b2f0 4f3c 6650 dbbc
00000310: db47 773c e5f4 e3bc 0ea6 d23a 5910 41bd
00000320: b5ea 20bd dc03 cebc 0eb9 81bc e23a 3cbd
00000330: b959 c63c c0b6 643c 5d5d 7a3b aef8 7e3c
00000340: 7980 113d d77b 4fbc f996 5c3c 27ca ca3c
00000350: 58eb f63c 16c2 7cbc f56b 97bc c7b8 dabc
00000360: 6ac0 b9ba 843f b93c 1e41 08bb 7e91 d4bc
00000370: b2a6 8c3b 7621 6bbc 4032 81bc cd3f 0a3d
00000380: 7d80 38bc 8382 43bc 6ad7 a4bc d821 65bd
00000390: e263 04bb 897d 083c 295d 833c f70a b5bc
000003a0: 3b96 15bd 7a72 febc 0b62 f43c a094 1cbd
000003b0: 65b7 39bd 3eec bb3c 9998 44bc 96a5 f03b
000003c0: f67f 08bd 8841 40bd 2ecd 103c be40 ab3b
000003d0: b7ae 023d bd65 15bd d49e fcbc 5276 e53c
000003e0: 83dc 043d 44e3 42bb 9e97 0039 cfe6 1fbd
000003f0: d590 043d b185 413b ff84 31bd 4746 09bd

feature_layers.odefunc.conv1.bias f4 [64]
-0.022510907 0.038869195 0.0049602604 0.024502201 -0.018548293 0.020785317 -0.023076888 0.008031205
-0.01554961 -0.010588023 0.020770958 -0.005376965 -0.020382127 -0.03782029 -0.0047742147 0.04440041
0.0034748795 0.016318318 0.0038871507 0.005186736 -0.012589437 -0.023175616 0.009594726 0.049057078
0.029783169 -0.026919486 -0.037552305 0.029603641 0.011454177 0.02827849 -0.0044109323 -0.01676921
-0.020427179 0.010473181 -0.039613213 0.017995762 -0.018842353 0.03197743 0.027371272 -0.023953173
0.035396356 0.00804292 -0.033591513 0.0017612332 -0.00423687 0.0031708574 -0.00072315225 0.040751074
0.017982941 -0.010450561 0.031561773 -0.022574909 0.008965716 -0.004221544 -0.037971407 -0.022286044
-0.015539955 -0.01997115 -0.042414468 0.013708205 0.017132737 0.009293212 0.005675607 0.012361878
00000000: cb68 b8bc 4e35 1f3d ae89 a23b d7b8 c83c
00000010: 97f2 97bc f845 aa3c be0b bdbc 5195 033c
00000020: cbc3 7ebc 6379 2dbc db27 aa3c 4031 b0bb
00000030: 6bf8 a6bc 73e9 1abd 0471 9cbb 34dd 353d
00000040: ceba 633b fead 853c 91bf 7e3b 7ff5 a93b
00000050: ed43 4ebc cada bdbc 3333 1d3c 13f0 483d
00000060: d5fb f33c 4186 dcbc 72d0 19bd 5683 f23c
00000070: 4daa 3b3c 4ba8 e73c 9589 90bb 955f 89bc
00000080: e656 a7bc b497 2b3c 7741 22bd d96b 933c
00000090: 475b 9abc c4fa 023d b839 e03c 7239 c4bc
000000a0: c5fb 103d 74c6 033c 4197 09bd 2ed9 e63a
000000b0: 71d5 8abb 29ce 4f3b ed91 3dba 99ea 263d
000000c0: f650 933c d438 2bbc eb46 013d 04ef b8bc
000000d0: f0e4 123c e154 8abb e887 1bbd 3991 b6bc
000000e0: 4c9b 7ebc 8a9a a3bc cbba 2dbd 6198 603c
000000f0: f459 8c3c 8e42 183c 71fa b93b 7989 4a3c

feature_layers.odefunc.norm2.weight f4 [64]
0.99495983 0.98647773 0.9886433 0.99608994 1.0108662 1.0024403 0.99360734 1.0087363
1.0035068 0.9952139 0.9917944 0.9984109 1.0001029 0.99968857 1.0036755 1.0022961
0.993792 0.99409175 0.9926599 0.99109715 1.0017304 1.0241544 0.9932592 1.0045142
0.9929567 1.0020299 1.0055496 1.0063748 0.9969304 1.0029811 1.001215 0.99083793
0.9907277 0.9919765 0.9938173 1.0064584 0.9973201 0.9884168 1.0111012 0.9911608
0.99481636 0.9969925 1.0027142 1.0039823 0.9931859 1.0023663 0.9975033 0.9895925
0.9934022 1.0036409 1.0187988 1.0104954 1.0134972 0.9991304 0.99438643 1.0170003
1.0164388 0.994205 0.9907712 0.9948808 0.99541503 0.9927684 0.99129236 1.002655
00000000: b0b5 7e3f ce89 7c3f ba17 7d3f c0ff 7e3f
00000010: 1064 813f f74f 803f 0d5d 7e3f 451e 813f
00000020: e972 803f 57c6 7e3f 3de6 7d3f db97 7f3f
00000030: 5f03 803f 97eb 7f3f 7078 803f 3d4b 803f
00000040: 2769 7e3f cc7c 7e3f f61e 7e3f 8bb8 7d3f
00000050: b438 803f 7e17 833f 3c46 7e3f ec93 803f
00000060: 6932 7e3f 8442 803f d9b5 803f e4d0 803f
00000070: d536 7f3f af61 803f d027 803f 8ea7 7d3f
00000080: 55a0 7d3f 2cf2 7d3f d06a 7e3f a1d3 803f
00000090: 5f50 7f3f e208 7d3f c46b 813f b7bc 7d3f
000000a0: 49ac 7e3f e73a 7f3f f058 803f 7e82 803f
000000b0: 6e41 7e3f 8a4d 803f 605c 7f3f ef55 7d3f
000000c0: 9b4f 7e3f 4e77 803f 0068 823f ea57 813f
000000d0: 47ba 813f 03c7 7f3f 1c90 7e3f 112d 823f
000000e0: ab1a 823f 3884 7e3f 2ea3 7d3f 82b0 7e3f
000000f0: 85d3 7e3f 1226 7e3f 56c5 7d3f 0057 803f

feature_layers.odefunc.norm2.bias f4 [64]
-0.006137238 -0.006266484 -0.010831739 1.6173894e-05 0.0147694005 -0.012755662 0.0017623173 0.004509562
0.002077464 -0.0006137735 -0.010102936 -0.0030575378 -0.0015879294 -0.0063109333 0.004893666 0.0036183137
-0.009924945 -0.004093142 -0.010015212 -0.009873655 0.0012723475 0.021562716 -0.008038984 0.0068740295
-0.007267387 0.0034258664 0.0073845084 0.0091350395 -0.004644619 0.0076211025 0.006536023 -0.0137085095
-0.010495144 -0.0059505566 -0.006365188 0.004505994 0.00013459299 -0.012352154 0.001906192 -0.0075769187
-0.004711842 0.00040492203 -0.0049457503 0.008509225 -0.0015246173 0.010465543 0.004803406 -0.009417784
-0.0033273718 -0.0151892435 0.02524336 0.013243441 0.015751505 -0.0015471849 -0.0057026763 0.014619766
0.012905679 -0.008450362 -0.008044653 -0.0054484666 -0.005427847 -0.006607536 -0.007744283 0.0004186206
00000000: e21a c9bb 1457 cdbb 9b77 31bc 2cad 8737
00000010: 5bfb 713c 20fd 50bc 8efd e63a f3c4 933b
00000020: 1026 083b a4e5 20ba c986 25bc f960 48bb
00000030: 1222 d0ba f2cb cebb 0c5b a03b 3b21 6d3b
00000040: 3d9c 22bc c41f 86bb d816 24bc 1cc5 21bc
00000050: e6c4 a63a 4ba4 b03c f1b5 03bc 8a3f e13b
00000060: 4323 eebb 8084 603b bff9 f13b 22ab 153c
00000070: e331 98bb 71ba f93b 232c d63b a899 60bc
00000080: d3f3 2bbc e3fc c2bb 1193 d0bb 04a7 933b
00000090: 8821 0d39 b060 4abc 31d9 f93a cd47 f8bb
000000a0: cc65 9abb b74b d439 f60f a2bb 476a 0b3c
000000b0: abd5 c7ba ab77 2b3c e465 9d3b 0d4d 1abc
000000c0: 0910 5abb 4edc 78bc 2acb ce3c 04fb 583c
000000d0: 4d09 813c e9ca caba 84dd babb be87 6f3c
000000e0: 5772 533c 6373 0abc b8cd 03bc 0d89 b2bb
000000f0: 15dc b1bb 0884 d8bb c1c3 fdbb 4e7a db39
